fashion_mnist_cnn_full (1).pth (torch, 191042 bytes, 18 tensors)

weight f4 [8, 1, 5, 5]
-1.884427 -0.6780095 -0.12672836 1.3925706 1.3269591 -2.5869079 -0.87739724 1.7101101
0.45208797 0.9876171 -0.83232516 -0.20985618 0.9369167 2.0884392 -0.42944112 -0.55351245
0.17152087 0.6170886 1.3314534 -0.3302914 -1.1606432 -0.5243541 0.13390282 -0.11308115
-0.981398 -1.0176617 -5.007052 -5.5587163 -2.1750743 0.12657726 -0.44016156 -2.2268121
-2.700223 -0.1308349 0.62644625 0.60440916 0.7748792 -0.1399803 0.33470133 0.06848932
0.57408595 0.13851629 -0.3552105 0.35003892 -0.35390803 -0.022293987 0.90623105 0.47888502
0.07481709 0.07629296 0.33007503 0.6319156 -1.1781859 0.5332562 0.08562053 -0.74598783
0.43022326 -2.0051684 0.5372722 0.5416695 -0.095043264 1.0735546 -2.126847 1.0835091
0.66788113 0.11230562 0.39079902 -0.6749112 1.5085287 0.6516136 -0.6025595 1.869024
1.8199356 1.0845536 -0.057076197 -0.5525661 -0.36661437 -0.98634547 -0.46904913 -0.47030988
-0.82519996 -1.5338619 -2.897597 -2.6518674 -2.1363842 0.48981678 -0.85590464 -2.4632409
-2.0246365 -0.41010296 0.34449053 0.61631376 -0.61898357 -0.2690507 -0.5369584 -0.63306844
0.37363556 -0.32382807 -0.62703127 -0.43275282 -1.0558286 0.5182044 0.32298273 0.7902964
-0.5606148 -0.54274744 1.0326221 -1.392961 1.2034298 -0.09857389 1.1631248 1.1334622
-3.6330774 0.55373657 1.0605065 2.0313108 0.29248598 -3.174013 0.33729318 0.1086279
1.5059406 -0.29465815 -1.3612468 -0.1864156 0.18141046 0.2735614 0.3284661 0.18223062
0.269212 0.1281569 0.21008375 0.17795579 0.22855136 -0.014048353 0.020102426 0.16848154
0.31917498 0.41716358 0.24896316 0.21853985 0.2289895 0.40020132 0.45695242 0.3315656
0.16599709 0.1506562 0.3659555 0.3004552 0.3328921 0.32605845 0.16279277 0.2050397
0.0019282378 -0.07189777 0.22071455 0.018697988 0.2681329 0.32402873 0.011921916 0.10080396
0.28457862 0.20455618 0.16442645 0.2863404 0.116005845 0.15990658 0.3389329 0.18658961
-0.029045675 -0.025395274 0.25110146 0.35603848 0.1617259 0.33837894 0.17587885 0.94425035
0.73196197 -0.25177643 -0.2880716 -0.31718394 -1.4481213 -1.0393659 -0.15525077 0.56930536
0.24596341 -4.792468 -3.7378209 -0.7533435 0.31375325 0.4213936 -4.372164 -3.196571
-0.52813417 0.29253083 0.7644248 -1.801835 -0.9547366 0.13193335 0.6596119 0.449861
00000000: e734 f1bf 0892 2dbf 14c5 01be c13f b23f
00000010: ccd9 a93f e68f 25c0 1b9d 60bf e3e4 da3f
00000020: 1378 e73e 79d4 7c3f 4313 55bf 8ae4 56be
00000030: c6d9 6f3f fda8 0540 b5df dbbe feb2 0dbf
00000040: 2ba3 2f3e 85f9 1d3f 116d aa3f f41b a9be
00000050: f58f 94bf 123c 06bf d21d 093e 1797 e7bd
00000060: e63c 7bbf bd42 82bf c539 a0c0 01e1 b1c0
00000070: 6b34 0bc0 789d 013e db5c e1be 1784 0ec0
00000080: 74d0 2cc0 96f9 05be c85e 203f 8fba 1a3f
00000090: 7c5e 463f ff56 0fbe f95d ab3e 2144 8c3d
000000a0: 4cf7 123f 37d7 0d3e 27de b5be 4d38 b33e
000000b0: 6f33 b5be e1a1 b6bc c2fe 673f 6b30 f53e
000000c0: b439 993d 7c3f 9c3d 98ff a83e 39c5 213f
000000d0: ccce 96bf 7a83 083f d159 af3d 0ff9 3ebf
000000e0: 3946 dc3e ae54 00c0 ac8a 093f daaa 0a3f
000000f0: 0ba6 c2bd 3d6a 893f 431e 08c0 6db0 8a3f
00000100: 42fa 2a3f 7d00 e63d cf16 c83e fbc6 2cbf
00000110: 7817 c13f 26d0 263f 5741 1abf 2e3c ef3f
00000120: a6f3 e83f a7d2 8a3f bbc8 69bd f974 0dbf
00000130: e1b4 bbbe 2381 7cbf 3527 f0be 75cc f0be
00000140: 4e40 53bf 9655 c4bf 3b72 39c0 32b8 29c0
00000150: 85ba 08c0 44c9 fa3e 911c 5bbf bda5 1dc0
00000160: a593 01c0 04f9 d1be 1061 b03e bdc6 1d3f
00000170: b575 1ebf 03c1 89be 1b76 09bf c610 22bf
00000180: 294d bf3e cbcc a5be 1f85 20bf c791 ddbe
00000190: 6425 87bf 0ba9 043f fe5d a53e dd50 4a3f
000001a0: 7484 0fbf 7ff1 0abf f62c 843f 8c4c b2bf
000001b0: fd09 9a3f 1ce1 c9bd 46e1 943f 4a15 913f
000001c0: 5784 68c0 aec1 0d3f adbe 873f ff00 0240
000001d0: b9c0 953e 0723 4bc0 b1b1 ac3e 4e78 de3d
000001e0: a9c2 c03f 6fdd 96be 563d aebf bbe3 3ebe
000001f0: aac3 393e 3d10 8c3e b52c a83e aa9a 3a3e
00000200: 28d6 893e 903b 033e 3220 573e 0b3a 363e
00000210: 5e09 6a3e 102b 66bc d8ad a43c 6d86 2c3e
00000220: e76a a33e 7796 d53e 33f0 7e3e e9c8 5f3e
00000230: 397c 6a3e 30e7 cc3e abf5 e93e f7c2 a93e
00000240: 24fb 293e 9e45 1a3e 855e bb3e 44d5 993e
00000250: d570 aa3e 22f1 a63e 26b3 263e edf5 513e
00000260: edbc fc3a 233f 93bd ff02 623e 862c 993c
00000270: b748 893e 18e7 a53e 2454 433c 4e72 ce3d
00000280: 4ab4 913e 2d77 513e 685f 283e 359b 923e
00000290: 7994 ed3d 8dbe 233e 9d88 ad3e 5911 3f3e
000002a0: 32f1 edbc c009 d0bc 5f90 803e ad4a b63e
000002b0: 799b 253e 0140 ad3e 9619 343e 64ba 713f
000002c0: dc61 3b3f d7e8 80be 1f7e 93be ef65 a2be
000002d0: 0a5c b9bf f109 85bf 0ffa 1ebe ffbd 113f
000002e0: d5dd 7b3e e65b 99c0 7538 6fc0 1fdb 40bf
000002f0: 44a4 a03e e7c0 d73e c4e8 8bc0 9f94 4cc0
00000300: cd33 07bf 9ac6 953e 58b1 433f 87a2 e6bf
00000310: 9e69 74bf 8919 073e 53dc 283f 2e54 e63e

bias f4 [8]
0.77357835 1.6718268 -0.35698432 -1.024698 0.7671121 -0.081657864 -0.67204183 -2.373978
00000000: 3b09 463f 6cfe d53f a6c6 b6be 4e29 83bf
00000010: 7561 443f 3d3c a7bd ef0a 2cbf 41ef 17c0

weight f4 [8]
0.6636829 2.4437892 0.38371378 2.7779908 0.5522228 0.24379623 -0.17527384 2.7102387
00000000: 1fe7 293f 0b67 1c40 2276 c43e 9aca 3140
00000010: 795e 0d3f b8a5 793e fc7a 33be 8d74 2d40

bias f4 [8]
0.09612137 -1.7756863 0.28227398 -2.0561268 -0.03222983 -0.6479972 -0.26936367 -2.0215385
00000000: 48db c43d b049 e3bf 3786 903e 9597 03c0
00000010: 6d03 04bd 25e3 25bf 09ea 89be e360 01c0

running_mean f4 [8]
0.92870265 6.454029 -2.1829662 5.192489 0.6824388 -2.005871 -1.9723126 3.110792
00000000: 75bf 6d3f 6887 ce40 b8b5 0bc0 df28 a640
00000010: 4fb4 2e3f 3160 00c0 bd74 fcbf 3717 4740

running_var f4 [8]
20.896496 111.763 16.784666 158.38254 9.152908 13.655993 6.2361803 162.42343
00000000: 062c a741 a886 df42 ff46 8641 ee61 1e43
00000010: 5072 1241 f37e 5a41 ca8e c740 666c 2243

weight f4 [16, 8, 5, 5]
-0.5645857 0.47254947 -0.43573806 -0.42888427 -0.75540763 -1.1952016 -0.15016259 0.2539457
-0.41255826 -1.2766048 -0.8697796 0.6303433 0.85419315 -0.6453664 -0.02705551 -0.53924793
-0.32999825 -0.25855282 -0.5232763 1.2548265 -0.20502722 -2.301855 -0.94365436 1.0395875
0.9503107 1.350734 0.388884 1.1353192 1.1406076 -0.049498558 0.31293136 -0.24656795
-0.6769586 0.25532588 -0.82212687 0.14345352 0.90205175 -1.0877498 0.24750586 -0.17673445
0.0053384295 0.044051677 -0.7211848 0.37238145 -0.65052146 -1.5587757 1.21372 4.4770694
2.4682722 -1.5465889 0.7762128 0.26606068 0.81312424 0.7778496 0.35504812 1.1574843
1.0769606 1.0723041 0.5457562 0.61081594 1.6462779 1.1957085 -0.09161694 -0.6586897
0.5170478 1.3454454 0.17683627 -0.45238486 -1.3565178 -0.18270667 0.005147365 -0.5177903
-0.016872935 -0.085723065 0.33967054 1.4720964 0.88283056 1.2593862 1.316166 0.7144796
1.748773 0.49815777 0.5390031 1.1554489 0.8377861 1.7811068 0.49603397 0.77993476
1.033322 0.4929875 0.75292635 0.1936179 2.6547143 -0.021922253 -1.6628151 2.8240008
3.9734778 4.1620245 -0.08805779 -2.0092897 -1.9777992 -1.3725746 0.07682662 0.44347307
0.43182114 0.17164817 -0.13615045 0.24006416 0.78601855 0.07846445 -1.6147429 0.43267816
-0.70828694 1.3182399 -1.0492488 -1.2629445 1.1609209 2.229691 1.0710096 -0.71070886
0.503224 -0.3859608 -1.1013671 -1.6276518 -0.043666393 -0.019047424 0.16274267 -0.14419413
-0.29580396 -0.122680105 -0.11947663 0.09677034 -0.34108958 -0.30734926 -0.17170581 -0.11972173
-0.07599562 -0.3999785 -0.34578067 0.032940716 -0.15911841 -0.26147285 -0.39319563 -0.4040648
-0.049534813 -0.23972102 -0.40116972 -0.3758777 -0.2602021 -0.06889832 0.16030149 0.31421122
0.12398969 -0.21721429 -0.10555277 0.26733905 0.15368247 -0.0336188 -0.33517277 -0.022839013
0.24407266 0.16612093 -0.16285375 -0.36255807 -0.026557036 -0.03213096 -0.062566265 -0.17173322
-0.45157546 -0.03213057 -0.12065249 -0.36690748 -0.24857084 -0.06816858 0.10737972 0.33603367
0.56233346 -0.9222915 -1.3868456 -1.1008993 0.46996564 1.3645751 -0.94474715 -1.6392865
0.5584995 -0.7307161 1.0949802 -1.6706975 -1.1331443 0.6725205 -0.9847797 -0.28232452
1.6338766 3.5494995 2.7344024 0.26937184 1.5234143 2.6605177 2.747918 -0.52113324
-1.2193892 0.13987735 0.6943012 -0.22351895 -0.12194277 -0.9404355 -0.2403346 0.5691633
-0.17033584 -0.7784849 0.21625432 -0.18692099 0.51565325 0.53902316 0.25345016 0.6764894
-1.9789276 -0.12848102 -0.27902082 -0.46290535 2.0097308 -0.45763463 1.4201229 0.38323385
0.5248857 -0.74101746 0.2522162 0.66785204 0.3432474 -2.1150997 -0.9537157 -0.6177608
-0.9913363 -0.26918247 -1.5871552 -0.8967108 0.1766231 -0.3585071 -0.4411655 -1.3488739
-0.32328513 1.5208893 0.83850706 0.63227177 -0.995499 -2.117544 1.050936 1.0489925
0.96742415 0.2309337 -1.4508809 -1.9742996 -0.43331409 -0.014788773 0.45555598 -1.5676651
00000000: b088 10bf 01f2 f13e 0f19 dfbe b896 dbbe
00000010: 6562 41bf 5efc 98bf 39c4 19be 2c05 823e
00000020: d63a d3be c967 a3bf e0a9 5ebf 2e5e 213f
00000030: 67ac 5a3f bb36 25bf 84a3 ddbc 270c 0abf
00000040: 88f5 a8be 0961 84be 70f5 05bf 289e a03f
00000050: a8f2 51be 9851 13c0 5593 71bf 3411 853f
00000060: 9047 733f dae4 ac3f ce1b c73e 2452 913f
00000070: 6eff 913f 00bf 4abd 8a38 a03e 4f7c 7cbe
00000080: 294d 2dbf 13ba 823e e876 52bf 7be5 123e
00000090: ddec 663f 633b 8bbf 2d72 7d3e e0f9 34be
000000a0: feed ae3b 886f 343d 919f 38bf c8a8 be3e
000000b0: 9388 26bf f685 c7bf 2d5b 9b3f 2744 8f40
000000c0: 2cf8 1d40 a0f6 c5bf e2b5 463f 1b39 883e
000000d0: e928 503f 2721 473f dec8 b53e 7228 943f
000000e0: d8d9 893f 4341 893f aeb6 0b3f 6f5e 1c3f
000000f0: 3cb9 d23f fa0c 993f aaa1 bbbd e39f 28bf
00000100: 3f5d 043f 8e37 ac3f 9114 353e fd9e e7be
00000110: 60a2 adbf 7517 3bbe 3aab a83b e88d 04bf
00000120: 1c39 8abc 938f afbd 4ce9 ad3e a86d bc3f
00000130: 2f01 623f 9133 a13f 2178 a83f 23e8 363f
00000140: cbd7 df3f 890e ff3e 1bfc 093f c0e5 933f
00000150: 2679 563f 4ffb e33f 2af8 fd3e cea9 473f
00000160: e543 843f dc68 fc3e c8bf 403f c543 463e
00000170: d7e6 2940 4c96 b3bc 20d7 d4bf 6ebc 3440
00000180: 764d 7e40 4e2f 8540 a557 b4bd 3498 00c0
00000190: 8628 fdbf 86b0 afbf 4657 9d3d e70e e33e
000001a0: a917 dd3e 8ac4 2f3e 066b 0bbe 61d3 753e
000001b0: 8338 493f f8b1 a03d e5af cebf fe87 dd3e
000001c0: 4b52 35bf 16bc a83f c94d 86bf 2aa8 a1bf
000001d0: 0e99 943f 42b3 0e40 d816 893f 04f1 35bf
000001e0: 4ad3 003f a79c c5be 99f9 8cbf e556 d0bf
000001f0: 88db 32bd 5809 9cbc 04a6 263e a0a7 13be
00000200: 9e73 97be b53f fbbd 2ab0 f4bd 872f c63d
00000210: 4ba3 aebe e25c 9dbe a6d3 2fbe ab30 f5bd
00000220: 97a3 9bbd fbc9 ccbe 2a0a b1be d8ec 063d
00000230: f0ef 22be c5df 85be f050 c9be 95e1 cebe
00000240: 04e5 4abd 6d79 75be 1e66 cdbe 0b73 c0be
00000250: 3639 85be 901a 8dbd 1326 243e 4be0 a03e
00000260: 4eee fd3d 6c6d 5ebe 0d2c d8bd aae0 883e
00000270: f05e 1d3e deb3 09bd c49b abbe e218 bbbc
00000280: 2fee 793e 9b1b 2a3e 22c3 26be 36a1 b9be
00000290: 248e d9bc c19b 03bd be22 80bd d5da 2fbe
000002a0: e634 e7be 589b 03bd a718 f7bd 4cdb bbbe
000002b0: 5b89 7ebe f89b 8bbd e6e9 db3d 9b0c ac3e
000002c0: 16f5 0f3f 4c1b 6cbf 2884 b1bf 45ea 8cbf
000002d0: 569f f03e 66aa ae3f f3da 71bf 24d4 d1bf
000002e0: d3f9 0e3f 3610 3bbf 5028 8c3f 6ad9 d5bf
000002f0: df0a 91bf 4e2a 2c3f 861a 7cbf d78c 90be
00000300: de22 d13f 002b 6340 7300 2f40 1beb 893e
00000310: 3dff c23f ec45 2a40 e3dd 2f40 fd68 05bf
00000320: f214 9cbf 023c 0f3e b9bd 313f 27e2 64be
00000330: 22bd f9bd 62c0 70bf 461a 76be b0b4 113f
00000340: 856c 2ebe c94a 47bf c671 5d3e 3768 3fbe
00000350: da01 043f 6cfd 093f 38c4 813e 692e 2d3f
00000360: 804d fdbf 8790 03be d1db 8ebe ee01 edbe
00000370: 6e9f 0040 164f eabe 96c6 b53f 3a37 c43e
00000380: e95e 063f 52b3 3dbf 7b22 813e 5af8 2a3f
00000390: 20be af3e cb5d 07c0 b626 74bf 9225 1ebf
000003a0: 37c8 7dbf 49d2 89be e727 cbbf d78e 65bf
000003b0: b0dc 343e 3e8e b7be 72e0 e1be e6a7 acbf
000003c0: a185 a5be 80ac c23f 66a8 563f 90dc 213f
000003d0: 06d9 7ebf d785 07c0 1285 863f 6345 863f
000003e0: 1ca9 773f e279 6c3e 77b6 b9bf d9b5 fcbf
000003f0: 58db ddbe 9c4c 72bc a23e e93e 40a9 c8bf

bias f4 [16]
-0.09823088 -0.2984158 -0.67883325 -0.52466077 -0.030029567 -0.70252573 0.03674868 0.28463703
-0.085542604 0.044271562 -0.5434649 -0.62638044 0.20752493 0.074018285 -0.081252426 -0.011345968
00000000: 462d c9bd f5c9 98be 04c8 2dbf 2b50 06bf
00000010: 9100 f6bc bad8 33bf c985 163d f2bb 913e
00000020: f630 afbd 1956 353d 8420 0bbf 785a 20bf
00000030: 6a81 543e e696 973d ac67 a6bd 70e4 39bc

weight f4 [16]
0.6027344 0.6172861 0.6956192 0.71560675 0.52178156 0.701487 0.31093922 0.66348475
0.56611055 0.24352576 0.6519796 0.7973488 0.42479926 0.4599465 0.33762792 0.2243809
00000000: cd4c 1a3f 7606 1e3f 1a14 323f 0132 373f
00000010: 7a93 053f a794 333f 6d33 9f3e 23da 293f
00000020: 9fec 103f d15e 793e 23e8 263f 0d1f 4c3f
00000030: 4a7f d93e 1c7e eb3e 91dd ac3e 1bc4 653e

bias f4 [16]
-0.71082324 -0.58801436 -0.5479711 -0.63637215 -0.47340864 -0.65438634 -0.7463551 -0.8139968
-0.6571838 -0.6818722 -0.616829 -0.7546235 -0.3917221 -0.4338446 -0.842217 -0.700888
00000000: 83f8 35bf 1c88 16bf d647 0cbf 49e9 22bf
00000010: 9e62 f2be dd85 27bf 2111 3fbf 1862 50bf
00000020: 333d 28bf 2d8f 2ebf 81e8 1dbf 012f 41bf
00000030: cd8f c8be e120 debe 899b 57bf 656d 33bf

running_mean f4 [16]
10.740449 -15.164767 -24.009575 -12.732081 -0.20356837 -12.622717 -15.317383 -13.301887
8.100188 -12.90942 -9.546336 -14.919186 1.8544278 -13.855772 -16.307089 -2.9216452
00000000: e1d8 2b41 e3a2 72c1 9c13 c0c1 9bb6 4bc1
00000010: 3a74 50be a6f6 49c1 0014 75c1 87d4 54c1
00000020: 5f9a 0141 fc8c 4ec1 cbbd 18c1 fcb4 6ec1
00000030: e45d ed3f 3eb1 5dc1 eb74 82c1 3cfc 3ac0

running_var f4 [16]
131.76144 110.50815 283.08456 187.47327 196.67827 144.62451 187.23415 112.42225
123.32556 108.19134 88.82093 269.69348 84.25585 130.06032 75.93046 18.922623
00000000: eec2 0343 2c04 dd42 d38a 8d43 2879 3b43
00000010: a3ad 4443 e09f 1043 f13b 3b43 31d8 e042
00000020: b0a6 f642 f761 d842 51a4 b142 c4d8 8643
00000030: ff82 a842 710f 0243 65dc 9742 8861 9741

weight f4 [120, 256]
-0.20839694 -0.20993087 -0.16794087 -0.14628658 -0.27157012 -0.16547012 -0.25367802 -0.12186888
-0.235634 -0.1939739 -0.26378685 -0.1644883 -0.15513001 -0.1713023 -0.18258527 -0.18959284
-0.10651366 -0.3328203 -0.27164215 -0.3041125 0.06261393 -0.19515637 -0.21587077 0.051383335
0.18620114 -0.08288726 -0.11934347 0.033798687 0.19403115 -0.06275105 0.06906184 -0.04145349
-0.061671954 -0.2783333 -0.28634948 -0.2587215 0.09530444 -0.11795677 -0.23587075 -0.20607165
0.026157146 0.017919319 -0.043344703 -0.1298408 0.16716589 0.051434327 -0.15968576 -0.13167745
-0.07943456 -0.14625654 -0.14437632 -0.0741364 -0.11226566 -0.1436874 -0.12827455 -0.056971893
-0.17667042 -0.23230104 -0.188262 -0.12397246 -0.026399119 -0.20485649 -0.14971288 -0.11643986
-0.032691102 -0.16255715 -0.067659825 -0.17974049 -0.20998806 -0.05505187 -0.10218974 -0.17883335
-0.23233353 -0.21639857 -0.1078089 -0.24345 -0.25838476 -0.2763336 -0.20869124 -0.24055837
0.2981706 0.10385567 -0.07890886 -0.09189046 0.15235375 -0.020705055 -0.046428364 -0.101399936
0.16618049 -0.03494822 0.030076066 -0.09103239 0.35933706 -0.12577792 0.05446767 -0.1199367
-0.2890309 -0.25078043 -0.30300274 0.16400202 -0.12044122 -0.08167401 -0.009517535 0.16956735
-0.09282458 -0.0067290138 -0.01041348 0.08219014 -0.04817986 -0.029168578 -0.08046673 -0.04701821
-0.34192562 -0.3239546 -0.2985885 -0.24720132 -0.024872785 -0.25525746 -0.2819689 -0.36127335
0.10212014 -0.18131085 -0.2018545 -0.29844415 -0.0676113 -0.34799302 -0.16425444 -0.11314545
-0.13290824 -0.03328577 -0.028512862 -0.028865606 -0.21382095 -0.25746354 -0.14876655 -0.15326478
-0.22340007 -0.12114342 -0.21543775 -0.29602626 -0.19322841 -0.18510072 -0.21230373 -0.28253788
-0.023854105 -0.16882262 -0.35198143 -0.053434726 0.020670522 -0.22565557 -0.10367438 -0.11612573
-0.009182022 -0.18102543 -0.094298154 -0.14131948 -0.0676713 -0.13288012 -0.09106703 -0.090190075
-0.16400805 -0.27387196 -0.21789557 -0.22466464 -0.22371644 -0.25812894 -0.1139574 -0.24215119
-0.23892178 -0.22689368 -0.14681122 -0.22771744 -0.17134689 -0.1694262 -0.2247707 -0.3271248
-0.019830987 -0.15809873 -0.09567699 -0.17874736 -0.10740421 -0.06580092 -0.11191086 -0.08545587
-0.0741501 0.0018084822 -0.11554887 0.014464391 -0.09748219 -0.051271692 -0.07570603 0.08063057
-0.047903944 -0.11475714 -0.025381174 -0.086961105 -0.095737346 -0.17695709 -0.104799464 -0.11052255
-0.047938555 -0.20042714 -0.22073102 -0.13325779 -0.18404935 -0.0871441 -0.21181662 -0.21033446
-0.3243418 -0.32278472 -0.15508936 0.47491926 -0.1728645 -0.24218829 0.004477164 0.59708095
-0.18134119 -0.18749487 -0.036244825 0.39153692 -0.10485628 -0.047640633 0.07970276 0.24388102
0.046071075 0.06855108 -0.09777722 -0.16291137 -0.16708586 -0.084097564 -0.02167733 -0.13316056
-0.020522762 0.012503438 -0.06296287 -0.13311675 0.17729259 0.3722595 -0.23767594 -0.1638669
-0.18630858 -0.17382662 -0.18369538 -0.1756958 -0.1995135 -0.17216289 -0.2976313 -0.10441404
-0.040448822 -0.18093179 -0.29077306 -0.09451116 -0.10833591 -0.1560833 -0.15293573 -0.15821147
00000000: 0266 55be 1ef8 56be b1f8 2bbe 26cc 15be
00000010: 3d0b 8bbe 0071 29be 16e2 81be 6496 f9bd
00000020: 0a4a 71be 18a1 46be 120f 87be 9f6f 28be
00000030: 67da 1ebe df69 2fbe a2f7 3abe a024 42be
00000040: d523 dabd 6c67 aabe ae14 8bbe a2b4 9bbe
00000050: bb3b 803d 12d7 47be 3a0d 5dbe 5577 523d
00000060: 83ab 3e3e ccc0 a9bd 596a f4bd 7e70 0a3d
00000070: 1ab0 463e 9f83 80bd 4b70 8d3d 22cb 29bd
00000080: bb9b 7cbd b481 8ebe 669c 92be 2577 84be
00000090: f92e c33d 5293 f1bd 1a88 71be 7204 53be
000000a0: 8347 d63c 89cb 923c 378a 31bd fdf4 04be
000000b0: 892d 2b3e cdac 523d aa84 23be 74d6 06be
000000c0: 96ae a2bd 46c4 15be 63d7 13be d3d4 97bd
000000d0: 8aeb e5bd ca22 13be 675a 03be 5c5b 69bd
000000e0: 17e9 34be 53e0 6dbe c1c7 40be 46e5 fdbd
000000f0: f742 d8bc e6c5 51be 554e 19be 0578 eebd
00000100: 1be7 05bd 6275 26be 3c91 8abd e40d 38be
00000110: 1c07 57be 127e 61bd db48 d1bd 1720 37be
00000120: d7e8 6dbe 9697 5dbe eaca dcbd f54a 79be
00000130: 024b 84be 997b 8dbe 28b3 55be ef54 76be
00000140: d1a9 983e 48b2 d43d f89a a1bd 1131 bcbd
00000150: 9f02 1c3e a69d a9bc ab2b 3ebd c5aa cfbd
00000160: 382b 2a3e dd25 0fbd 1562 f63c 316f babd
00000170: 07fb b73e edcb 00be 7e19 5f3d 5fa1 f5bd
00000180: dcfb 93be 4b66 80be 2d23 9bbe 25f0 273e
00000190: e3a9 f6bd b444 a7bd 6fef 1bbc 10a3 2d3e
000001a0: d01a bebd 0f7f dcbb 4d9d 2abc 4e53 a83d
000001b0: 3f58 45bd f1f2 eebc becb a4bd 2b96 40bd
000001c0: e010 afbe 61dd a5be 98e0 98be 5822 7dbe
000001d0: 03c2 cbbc 1bb1 82be 3a5e 90be d2f8 b8be
000001e0: 5d24 d13d 8da9 39be f2b2 4ebe accd 98be
000001f0: cb77 8abd 242c b2be 5132 28be cdb8 e7bd
00000200: 1919 08be a956 08bd ce93 e9bc 9077 ecbc
00000210: e1f3 5abe 43d2 83be 4256 18be 71f1 1cbe
00000220: fdc2 64be 0b1a f8bd b79b 5cbe c190 97be
00000230: abdd 45be 0b8b 3dbe 2666 59be cea8 90be
00000240: af69 c3bc d6df 2cbe e936 b4be 5fde 5abd
00000250: 3a55 a93c 4112 67be 3c53 d4bd 54d3 edbd
00000260: 3170 16bc bb5e 39be 641f c1bd 0eb6 10be
00000270: 4097 8abd ba11 08be 5a81 babd 93b5 b8bd
00000280: baf1 27be f238 8cbe 0420 5fbe 7d0e 66be
00000290: ec15 65be 7a29 84be 7f62 e9bd 7bf6 77be
000002a0: e9a7 74be d156 68be ae55 16be c32e 69be
000002b0: 8f75 2fbe 107e 2dbe 4a2a 66be e77c a7be
000002c0: 9874 a2bc a2e4 21be 4cf2 c3bd 8c09 37be
000002d0: bdf6 dbbd a2c2 86bd 8531 e5bd 7d03 afbd
000002e0: 02dc 97bd 980a ed3a e3a4 ecbd 0efc 6c3c
000002f0: bea4 c7bd 4402 52bd c30b 9bbd a421 a53d
00000300: ed36 44bd cb05 ebbd 2eec cfbc aa18 b2bd
00000310: f111 c4bd 3d34 35be 1aa1 d6bd a659 e2bd
00000320: 385b 44bd c63c 4dbe 5007 62be bb74 08be
00000330: 6f77 3cbe 9b78 b2bd 75e6 58be eb61 57be
00000340: 2110 a6be 0a44 a5be bfcf 1ebe 9e28 f33e
00000350: 6403 31be 3500 78be 2cb5 923b 4cda 183f
00000360: 81b1 39be a8fe 3fbe 7475 14bd 8777 c83e
00000370: e4be d6bd d322 43bd 333b a33d f2bb 793e
00000380: 06b5 3c3d 8264 8c3d 6c3f c8bd 3dd2 26be
00000390: 8e18 2bbe 583b acbd a894 b1bc 3e5b 08be
000003a0: 5a1f a8bc 38db 4c3c adf2 80bd c24f 08be
000003b0: 308c 353e cc98 be3e 5261 73be bacc 27be
000003c0: adc7 3ebe 9bff 31be a41a 3cbe 9ae9 33be
000003d0: 444d 4cbe 784b 30be 2163 98be 07d7 d5bd
000003e0: aaad 25bd 2f46 39be 35e0 94be 118f c1bd
000003f0: 38df ddbd 4dd4 1fbe 2f9b 1cbe 3002 22be

bias f4 [120]
-0.19411656 -0.161686 -0.7457353 -0.06804245 -0.12313748 -0.11229605 -0.45367828 -0.2620722
-0.13577239 1.1739349 -0.08200995 -0.24523218 -0.18643 -0.14971405 -0.7471284 -0.14780177
-0.13362768 -0.24818863 -0.15589026 -0.22744167 -0.00674648 -0.11824744 1.0602918 0.42367107
-0.16905569 -1.4420797 -0.16160251 -0.7556691 0.12624529 0.16235939 -0.1831275 -0.16687573
-1.0732671 -0.3509419 -0.15438178 0.14424668 0.42653304 -0.12308761 -0.16558656 -0.16704862
-0.26915818 0.80292714 -1.055752 -0.22979403 -0.25088212 -0.15342943 -0.27087295 -0.21991377
-0.14643799 -0.10976285 -0.22304375 -0.44510797 -0.11279498 -0.48981684 -0.13560975 -0.16405554
-0.18182288 0.56173533 -0.19139114 -0.46657354 -0.2704255 -0.35261104 -0.1841341 -0.36145192
-0.1924302 -0.47568363 -0.46935344 -0.24686198 -0.097935446 -0.1479828 -0.13005094 -0.6109258
-0.075483985 0.7552633 -0.33347946 -0.13074628 -0.09071661 -0.25216138 -0.084037006 -0.6029842
-0.33480915 0.67446196 -0.11013965 -0.5495855 -0.23954001 -0.43565774 -0.26850843 0.7949167
-0.3936943 -0.22023943 -0.079707235 -0.428472 -0.16248593 -0.8404959 0.14336973 -1.3132257
-0.17395556 -0.13799536 -0.124880604 -0.18443851 1.773576 -0.1569961 -0.17209414 -0.896697
-0.21051808 0.27911842 -1.2146926 -0.18792109 -0.09833804 -0.5083363 -0.19523859 -0.14504641
0.90332764 -0.3307121 -0.024196796 -0.104306296 -0.5633083 -0.18853864 -0.4113333 -0.12880504
00000000: 7ec6 46be 0491 25be 82e8 3ebf d759 8bbd
00000010: 812f fcbd 79fb e5bd 8548 e8be 542e 86be
00000020: eb07 0bbe 8043 963f d5f4 a7bd 251e 7bbe
00000030: 82e7 3ebe a44e 19be cf43 3fbf 5959 17be
00000040: b2d5 08be 2925 7ebe b2a1 1fbe 78e6 68be
00000050: 9311 ddbb b72b f2bd a4b7 873f 6aeb d83e
00000060: ef1c 2dbe 1196 b8bf 217b 25be 8873 41bf
00000070: 7246 013e 8a41 263e c685 3bbe 79e1 2abe
00000080: d160 89bf a8ae b3be 4216 1ebe 67b5 133e
00000090: 8a62 da3e 5b15 fcbd 868f 29be cb0e 2bbe
000000a0: 1acf 89be a28c 4d3f e222 87bf 204f 6bbe
000000b0: 9f73 80be 9b1c 1dbe dcaf 8abe 1331 61be
000000c0: d7f3 15be 58cb e0bd 9565 64be 31e5 e3be
000000d0: 0e01 e7bd 46c9 fabe 48dd 0abe 2dfe 27be
000000e0: c72f 3abe e3cd 0f3f 0afc 43be bae2 eebe
000000f0: 3675 8abe 6f89 b4be a68d 3cbe 3a10 b9be
00000100: 6c0c 45be ce8c f3be 184f f0be 63c9 7cbe
00000110: 6192 c8bd ce88 17be 132c 05be a265 1cbf
00000120: 5997 9abd f058 413f d2bd aabe 5ae2 05be
00000130: a1c9 b9bd 4c1b 81be 981b acbd 2c5d 1abf
00000140: 1b6c abbe 8aa9 2c3f e690 e1bd a3b1 0cbf
00000150: fa49 75be 880e dfbe f079 89be a97f 4b3f
00000160: 4d92 c9be 7286 61be 8c3d a3bd af60 dbbe
00000170: b662 26be bd2a 57bf 84cf 123e c817 a8bf
00000180: 6821 32be a84e 0dbe 67c1 ffbd 73dd 3cbe
00000190: 8a04 e33f 96c3 20be 7239 30be ef8d 65bf
000001a0: 0d92 57be 9ce8 8e3e 0c7b 9bbf 636e 40be
000001b0: 7465 c9bd 5422 02bf a0ec 47be 0c87 14be
000001c0: 7b40 673f 1953 a9be 5c38 c6bc 8a9e d5bd
000001d0: f934 10bf 4610 41be 479a d2be 78e5 03be

weight f4 [84, 120]
-0.013078154 0.04462834 -0.27796912 -0.16216874 -0.20165482 -0.046332333 0.18837388 -0.26953426
0.21381488 -0.18564758 -0.174641 -0.11180546 -0.093651436 -0.24510533 -0.065746866 0.16577512
-0.21602264 -0.3562689 -0.06170231 -0.24366856 -0.49861723 -0.09300423 0.09431547 -0.1776971
-0.20492166 0.0065830294 -0.25257927 0.13200997 -0.061170705 -0.07234396 -0.19653624 -0.22638139
0.13652182 -0.13673548 -0.09343042 -0.259868 -0.069176 0.22552489 -0.22740568 -0.13647665
-0.092732325 -0.22154656 -0.17123246 0.19910881 0.26616982 -0.14581127 -0.119328886 0.16342513
0.23981942 -0.118124954 0.099883206 0.1281164 0.04553401 -0.18561906 -0.16076258 -0.26455405
-0.27851933 -0.10165828 -0.11598125 -0.120316625 0.17756014 0.124335274 -0.29220587 0.24679476
-0.25543442 0.14023763 0.17676689 -0.26813838 -0.17724188 -0.16266467 -0.18342654 0.15173368
-0.12176502 -0.055511694 -0.16637085 -0.22548407 -0.14627777 -0.05898632 -0.05725636 -0.20068574
-0.17193203 -0.29178467 -0.05999973 0.2653507 -0.10228991 -0.18630414 -0.11190192 -0.35896927
-0.025357002 -0.20890757 -0.2182041 0.18887949 -0.16916968 -0.23062088 -0.10103852 0.2937831
-0.077200495 0.1885255 -0.1833275 -0.16751666 -0.11469846 -0.20619981 -0.1927287 0.18951125
0.089374386 -0.014668577 0.15220928 -0.0550146 -0.28823882 -0.04224909 -0.16633552 -0.13316296
-0.4089826 0.17654538 -0.15160711 -0.14521371 0.12452493 -0.09071371 -0.25856292 -0.067221336
-0.4077555 0.04215253 -0.41801876 -0.1811027 0.039277352 0.059719495 -0.1825548 0.15661693
-0.13729362 0.41172278 0.1640803 0.233351 0.1620107 -0.26880842 -0.19739273 0.21803905
-0.13990551 0.123249225 -0.25931466 -0.16931382 -1.0287015 -0.004309346 -0.32773358 -0.77898437
0.107519016 -0.36241 0.21598855 0.8956644 0.549406 0.44834742 0.14172709 0.1365685
-0.22425178 0.093147516 0.12110899 -0.42271906 -1.4961623 0.064823195 -0.041734047 -0.31031522
-0.090506054 -1.126944 -0.14822064 -0.17691681 -0.11918246 -0.24617623 0.2632765 -0.14964834
0.2501405 0.018623568 -0.18331224 -0.47131285 -0.9017046 -0.13455789 -0.14584556 -0.023928232
-0.19072954 -0.030953443 -0.09226955 0.57788354 -0.14946787 -0.14503784 -0.023201896 -0.17556044
-0.17763078 -0.21616068 -0.21631955 -0.11158567 0.21581003 -0.15117508 -0.27372882 -0.23911329
0.19582756 -0.28830558 -0.2335366 -0.12649828 0.22924 -0.106690384 -0.19784702 -1.4061574
-0.12491727 -1.740179 0.1672658 -0.12177477 0.11271667 -0.42054844 -0.11485207 -2.7851465
-0.19827113 -0.05168913 0.0070184544 0.20611535 -0.18338728 -0.2682251 -1.0788963 0.6576018
0.11302778 0.010233686 -0.030714955 -0.06410513 -1.7068298 -0.04990024 -0.0025194855 0.13853438
-0.12380279 0.40502846 -0.22506166 0.12702666 -0.044812456 -0.22229505 0.10061859 -0.19390148
-1.4187858 0.20512737 0.39102587 -0.07796136 0.46884844 0.21174346 -1.8906376 -0.07844273
-0.29202175 -0.25046328 -0.42205116 0.20072894 -0.23504268 -0.29280087 -0.19271177 0.09205931
-0.23145059 -1.1236082 -0.1910066 -0.21514323 -0.13343921 -0.016153822 0.08940997 0.17025776
00000000: c145 56bc 35cc 363d f851 8ebe 900f 26be
00000010: 9a7e 4ebe f9c6 3dbd 15e5 403e 6500 8abe
00000020: 4af2 5a3e 661a 3ebe 17d5 32be 43fa e4bd
00000030: 53cc bfbd e4fc 7abe 4ba6 86bd f4c0 293e
00000040: 0a35 5dbe e168 b6be 90bb 7cbd 4084 79be
00000050: c24a ffbe 0079 bebd 7828 c13d 3bf6 35be
00000060: fcd6 51be 74b6 d73b 1252 81be 9f2d 073e
00000070: 228e 7abd 1229 94bd cc40 49be 86d0 67be
00000080: 60cc 0b3e 6304 0cbe 7358 bfbd 6b0d 85be
00000090: 26ac 8dbd ffef 663e 09dd 68be 89c0 0bbe
000000a0: 72ea bdbd 1add 62be 9057 2fbe 2ee3 4b3e
000000b0: 6947 883e 8d4f 15be b462 f4bd eb58 273e
000000c0: 3993 753e 7feb f1bd 918f cc3d f230 033e
000000d0: df81 3a3d ec12 3ebe f29e 24be a173 87be
000000e0: 169a 8ebe 3732 d0bd 9487 edbd 9068 f6bd
000000f0: 53d2 353e 7ea3 fe3d 029c 95be c4b7 7c3e
00000100: 4dc8 82be 749a 0f3e 6102 353e 6f49 89be
00000110: e57e 35be 9191 26be 2bd4 3bbe 1360 1b3e
00000120: f05f f9bd 3b60 63bd 1f5d 2abe 4ce5 66be
00000130: d7c9 15be a49b 71bd a585 6abd 9080 4dbe
00000140: f30e 30be cd64 95be 47c2 75bd 0cdc 873e
00000150: 5f7d d1bd 83c6 3ebe d52c e5bd d2ca b7be
00000160: 7db9 cfbc deeb 55be e570 5fbe a069 413e
00000170: d13a 2dbe e127 6cbe 49ed cebd bd6a 963e
00000180: 4b1b 9ebd d40c 413e 34ba 3bbe 7d89 2bbe
00000190: 07e7 eabd 0b26 53be ac5a 45be 3d0f 423e
000001a0: eb09 b73d 7954 70bc c0dc 1b3e fd56 61bd
000001b0: 0a94 93be 620d 2dbd dc53 2abe df5b 08be
000001c0: 2b66 d1be 50c8 343e e53e 1bbe e7b2 14be
000001d0: ed06 ff3d 1cc8 b9bd 5c62 84be 57ab 89bd
000001e0: 54c5 d0be 22a8 2c3d 8e06 d6be fc72 39be
000001f0: 4ae1 203d 6e9c 743d a5ef 3abe 3060 203e
00000200: b396 0cbe 54cd d23e ab04 283e 91f3 6e3e
00000210: 22e6 253e 42a1 89be 5221 4abe a145 5f3e
00000220: 6443 0fbe 176a fc3d e4c4 84be 9a60 2dbe
00000230: 7eac 83bf 6a35 8dbb b2cc a7be 856b 47bf
00000240: ee32 dc3d ce8d b9be 1a2c 5d3e 434a 653f
00000250: dfa5 0c3f cb8d e53e e820 113e 9dd8 0b3e
00000260: 42a2 65be 20c4 be3d fd07 f83d a26e d8be
00000270: 3f82 bfbf 06c2 843d 52f1 2abd a3e1 9ebe
00000280: 3d5b b9bd b33f 90bf 27c7 17be ae29 35be
00000290: ef15 f4bd 9f15 7cbe 2dcc 863e 6a3d 19be
000002a0: 6a12 803e 7490 983c 34b6 3bbe eb4f f1be
000002b0: 1dd6 66bf 8bc9 09be 8a58 15be 2405 c4bc
000002c0: 9b4e 43be 1392 fdbc d1f7 bcbd 2df0 133f
000002d0: 1b0e 19be cd84 14be e711 bebc 1ec6 33be
000002e0: d8e4 35be 3a59 5dbe df82 5dbe 0787 e4bd
000002f0: 4efd 5c3e a4cd 1abe 2f26 8cbe 1dda 74be
00000300: 0587 483e ca9c 93be 3824 6fbe c488 01be
00000310: e4bd 6a3e 7d80 dabd 6998 4abe f7fc b3bf
00000320: a0d4 ffbd 2fbe debf ba47 2b3e 0d65 f9bd
00000330: ffd7 e63d 2052 d7be 9037 ebbd d73f 32c0
00000340: 9607 4bbe fbb7 53bd 10fb e53b e70f 533e
00000350: e0c9 3bbe cd54 89be 4619 8abf 9758 283f
00000360: 1c7b e73d 31ab 273c ee9d fbbc 8d49 83bd
00000370: 6679 dabf 3264 4cbd f41d 25bb f5db 0d3e
00000380: 518c fdbd e45f cf3e 9076 66be 4713 023e
00000390: 448d 37bd 50a1 63be 1f11 ce3d 1c8e 46be
000003a0: c69a b5bf e90c 523e 8b34 c83e 35aa 9fbd
000003b0: e70c f03e 47d3 583e 6a00 f2bf 95a6 a0bd
000003c0: e083 95be b93c 80be 1717 d8be e38b 4d3e
000003d0: 07af 70be ffe9 95be 3c56 45be 9789 bc3d
000003e0: 6201 6dbe 65d2 8fbf 3c97 43be 824e 5cbe
000003f0: 4aa4 08be 0555 84bc 931c b73d 0d58 2e3e

bias f4 [84]
-0.5500235 1.2291958 0.5725737 -0.62713575 -0.6307175 -1.4399195 -1.226681 -3.1960394
-0.26230145 -0.4971198 0.91339576 -1.3733582 -0.18228917 -0.9381049 -0.31559992 0.40541762
-1.2107259 -1.2893964 0.6520478 -1.4240005 -0.8370515 0.58546245 -0.88135827 -0.20759682
-0.22594436 -0.6303813 0.91037846 -0.42302483 -0.7642461 -0.47504863 0.16555175 -0.34547985
-0.6780261 -0.27605775 -0.875694 -1.021219 -1.4951615 -0.4290418 -0.63033205 1.0452665
-1.0690643 -0.99698716 -0.31770372 0.46980047 -0.9163598 -1.1689714 -1.1102062 0.3683479
-0.791807 -0.50771683 -1.3378701 -1.0797348 -1.891426 -0.4829735 -1.2485043 -0.94738436
-2.3373382 -0.896536 0.66284335 -0.773508 -2.2012112 0.7309836 -1.7375286 -1.6768203
-1.0051998 -1.3460064 -1.5863665 -1.1578821 0.44243577 -1.382543 0.78493804 0.18649016
0.71531284 0.28405693 -0.19656703 1.128548 0.7633242 -0.6193813 -0.5547113 -0.8566952
0.71253866 -0.9502681 -0.44829905 -1.1806295
00000000: 57ce 0cbf 4a56 9d3f 3194 123f f88b 20bf
00000010: b476 21bf 484f b8bf e203 9dbf e98b 4cc0
00000020: 604c 86be 7d86 febe 4ed4 693f 34ca afbf
00000030: 03aa 3abe a527 70bf 5096 a1be e692 cf3e
00000040: 11f9 9abf f10a a5bf 9bec 263f a645 b6bf
00000050: 0249 56bf dee0 153f b2a0 61bf 4394 54be
00000060: f55d 67be ab60 21bf 900e 693f b696 d8be
00000070: a2a5 43bf 9339 f3be 6686 293e bce2 b0be
00000080: 1e93 2dbf 7157 8dbe 7b2d 60bf 4eb7 82bf
00000090: 7461 bfbf 5eab dbbe 715d 21bf 4bcb 853f
000000a0: 19d7 88bf 8d3a 7fbf 10aa a2be b089 f03e
000000b0: 8e96 6abf dba0 95bf 3d1b 8ebf 1998 bc3e
000000c0: ddb3 4abf bbf9 01bf 543f abbf c034 8abf
000000d0: 3f1a f2bf 4d48 f7be fdce 9fbf c887 72bf
000000e0: f396 15c0 6283 65bf 1ab0 293f 9f04 46bf
000000f0: a5e0 0cc0 be21 3b3f 5667 debf 0ca2 d6bf
00000100: 63aa 80bf f049 acbf 0f0e cbbf 7b35 94bf
00000110: f186 e23e 2bf7 b0bf b3f1 483f 47f7 3e3e
00000120: be1e 373f e96f 913e de48 49be 4374 903f
00000130: 3769 433f c68f 1ebf 8f01 0ebf 6050 5bbf
00000140: ef68 363f c544 73bf 7487 e5be de1e 97bf

weight f4 [10, 84]
0.060418103 -0.79727745 0.6012074 0.13445501 0.1025826 -0.26190725 -0.26396292 -0.7445493
-0.13334058 -0.018224416 -0.41496938 0.17757408 0.099278726 -0.09583095 0.027694302 0.43673965
-0.16001908 -0.0427054 -1.0797006 0.14702868 0.0970631 -0.14168726 -0.4984784 -0.05577376
-0.14553219 0.119696796 -0.05104693 0.04399264 0.17478317 -0.0846103 -0.56974036 0.1823968
0.1466179 0.14562324 0.15749176 0.14471763 -0.13467708 -0.08102563 -0.032828197 -0.6104372
-0.7462158 0.055473145 0.043357167 -0.6758168 0.10248247 -0.48983878 -0.701442 -0.3036326
-0.32785088 0.06915057 -0.18508928 0.25367832 -1.4518279 -0.41823757 0.24545158 -0.08504543
0.10356801 -0.104679 -0.42406166 0.04164118 -0.47744745 -0.03987508 0.037389882 -0.14869161
0.15610926 0.014660761 -0.041823667 0.22533515 -0.5738377 -0.096323565 0.04570931 0.23740052
0.61867297 -0.5796604 -0.111719735 -0.12171935 -1.047933 0.02108223 -0.027679602 0.033664215
0.36553937 -0.13754709 -0.06564888 0.08219351 -0.14969093 -0.6317503 -0.35159564 -0.053643912
-0.23462002 0.23310508 0.3062578 0.5405276 0.10440434 -0.24211213 -0.51458573 -0.059842385
-0.19402508 0.29122895 -0.14583953 -0.052860163 -0.13068698 0.035014614 -0.267113 0.019034943
-0.013369812 -0.38951495 0.37630782 0.17879985 0.03513839 -0.3761164 0.04178667 -0.13372342
-0.15266865 0.09859649 0.090509064 -0.025744632 -0.09728065 0.030655062 -0.16523676 -0.0013498641
0.51485485 0.10027902 -0.13589281 0.21571177 -0.7664325 0.21405518 -0.100674406 -0.17933904
0.23924127 -0.1485523 -0.838079 -0.08102193 -0.3046434 -0.25009188 -0.04101087 -0.4646516
-0.0674827 0.18819024 -0.19232328 0.13619572 -0.3329059 -0.07288861 0.9153994 -0.01843609
-1.7548302 -0.105443336 0.58025914 0.35649776 -0.16822807 -0.022252303 0.10030573 -0.17674813
0.26082256 -0.1480779 -0.6412872 0.05185267 -0.21591638 -0.063086025 0.4447042 0.83008593
-0.77198005 -0.017573532 -0.30381426 -0.10311495 -0.16023661 -0.5818802 0.057747856 -0.24712726
0.15533234 -1.1275684 -0.35661912 0.14417075 0.011606496 -0.9134339 0.057677016 -0.72614735
-0.5349044 0.28045514 -0.42065668 0.0011121428 0.1462243 -0.36059338 0.16528867 0.23127529
0.02944726 -0.23498346 -1.1033539 0.026116569 0.05761377 0.5731788 0.031719603 -0.07580375
-0.09108737 -0.51017493 -0.096144 0.1911261 0.17536142 -0.025676776 -0.34324065 0.19955641
0.1246968 -0.20428239 -0.013901659 -0.21399418 -0.22021115 -0.012818679 -0.33016786 -0.6757566
-0.061515946 -0.22587085 0.11921968 -0.46732682 -0.7553688 0.19204731 -0.8895528 0.062160537
-0.028400145 -1.020518 0.06778917 0.050713755 -0.041841477 0.1539864 -0.09862749 -0.06316016
-0.22861302 -0.25182107 -0.51553017 -0.23703054 -0.27248263 -0.038352888 -0.04556666 -0.16185507
0.02639538 0.3706076 0.26090348 0.16466773 -0.5750282 -0.37736917 -0.5127109 0.033571474
-0.41062564 0.02109778 -0.33405206 -0.72691894 -1.2040114 0.20589043 -0.0042591263 -0.12762354
0.50405294 -0.011702009 -0.06829047 0.5453694 -0.19696315 -0.8450364 0.2602172 -0.11562142
00000000: f978 773d 601a 4cbf bae8 193f 93ae 093e
00000010: d416 d23d b518 86be 2626 87be c89a 3ebf
00000020: 6f8a 08be 5f4b 95bc de76 d4be fbd5 353e
00000030: a552 cb3d 0443 c4bd 29df e23c 579c df3e
00000040: 0bdc 23be dceb 2ebd a133 8abf b08e 163e
00000050: 05c9 c63d 7716 11be 9038 ffbe 0773 64bd
00000060: 6406 15be 9823 f53d 9616 51bd a031 343d
00000070: 5cfa 323e 2a48 adbd 81da 11bf 3ac6 3a3e
00000080: 0123 163e 421e 153e 8545 213e dc30 143e
00000090: cae8 09be c4f0 a5bd dc76 06bd 9d45 1cbf
000000a0: 0008 3fbf cf37 633d 4997 313d 5402 2dbf
000000b0: 54e2 d13d 26cc fabe b491 33bf bb75 9bbe
000000c0: 12dc a7be d09e 8d3d 0b88 3dbe 20e2 813e
000000d0: 7fd5 b9bf 3c23 d6be a957 7b3e 4c2c aebd
000000e0: 771b d43d f261 d6bd 9c1e d9be f18f 2a3d
000000f0: fe73 f4be 0d54 23bd 2226 193d 9d42 18be
00000100: 1bdb 1f3e b033 703c 4b4f 2bbd 42be 663e
00000110: 07e7 12bf 4a45 c5bd af39 3b3d 1f19 733e
00000120: 5a61 1e3f a064 14bf 51cd e4bd ff47 f9bd
00000130: ab22 86bf a4b4 ac3c 55c0 e2bc 7de3 093d
00000140: fa27 bb3e 25d9 0cbe ec72 86bd 1255 a83d
00000150: 9448 19be 63ba 21bf 5804 b4be b8b9 5bbd
00000160: 3b40 70be 19b3 6e3e d3cd 9c3e 0460 0a3f
00000170: f1d1 d53d 3eec 77be e4bb 03bf 4a1d 75bd
00000180: 83ae 46be f61b 953e f556 15be e683 58bd
00000190: cfd2 05be 7c6b 0f3d 09c3 88be 2bef 9b3c
000001a0: 0e0d 5bbc 816e c7be 6bab c03e 4f17 373e
000001b0: 46ed 0f3d 5492 c0be 8028 2b3d cbee 08be
000001c0: 2c55 1cbe f5ec c93d d15c b93d 68e6 d2bc
000001d0: 143b c7bd 5320 fb3c d333 29be eced b0ba
000001e0: 87cd 033f 165f cd3d 7c27 0bbe 8ce3 5c3e
000001f0: ec34 44bf 4831 5b3e 622e cebd a7a4 37be
00000200: aafb 743e 181e 18be 588c 56bf d3ee a5bd
00000210: 38fa 9bbe 0b0c 80be 04fb 27bd d1e6 edbe
00000220: 5f34 8abd f1b4 403e 65f0 44be e476 0b3e
00000230: a472 aabe a046 95bd 9d57 6a3f 4807 97bc
00000240: 479e e0bf adf2 d7bd dd8b 143f e086 b63e
00000250: fb43 2cbe 764a b6bc 176d cd3d 76fd 34be
00000260: 898a 853e bca1 17be 662b 24bf 7763 543d
00000270: 2f19 5dbe 3f33 81bd 45b0 e33e 8380 543f
00000280: 7ca0 45bf 5ef6 8fbc 8b8d 9bbe ee2d d3bd
00000290: 1115 24be 1af6 14bf 0489 6c3d ee0e 7dbe
000002a0: 710f 1f3e 2954 90bf c896 b6be 7fa1 133e
000002b0: 2c29 3e3c ced6 69bf bc3e 6c3d cbe4 39bf
000002c0: 7fef 08bf d197 8f3e 5060 d7be 52c5 913a
000002d0: d3bb 153e b29f b8be 6f41 293e 6ed3 6c3e
000002e0: 613b f13c 819f 70be b33a 8dbf 6af2 d53c
000002f0: 6bfc 6b3d d9bb 123f 6aec 013d ff3e 9bbd
00000300: 048c babd d39a 02bf 25e7 c4bd 8fb6 433e
00000310: f291 333e 1a58 d2bc 3dbd afbe 8458 4c3e
00000320: 0961 ff3d 672f 51be c9c3 63bc 4a21 5bbe
00000330: 087f 61be 7005 52bc c30b a9be 62fe 2cbf
00000340: 25f8 7bbd b04a 67be 7329 f43d 7645 efbe
00000350: da5f 41bf 0da8 443e bbb9 63bf 0c9c 7e3d
00000360: 6ca7 e8bc 55a0 82bf 0cd5 8a3d 3ab9 4f3d
00000370: f861 2bbd 9cae 1d3e 36fd c9bd 1d5a 81bd
00000380: 8819 6abe b1ee 80be c9f9 03bf 22b8 72be
00000390: d882 8bbe eb17 1dbd 1ba4 3abd 56bd 25be
000003a0: 203b d83c 48c0 bd3e 2495 853e a89e 283e
000003b0: 0c35 13bf 8836 c1be 0641 03bf 3e82 093d
000003c0: 863d d2be 40d5 ac3c df08 abbe 5c17 3abf
000003d0: 0c1d 9abf f1d4 523e 2490 8bbb bfaf 02be
000003e0: 9d09 013f c8b9 3fbc e0db 8bbd 549d 0b3f
000003f0: b5b0 49be 4e54 58bf 303b 853e ecca ecbd

bias f4 [10]
-0.20087886 -0.97202647 0.10897659 0.20581377 -0.12095119 0.2350198 0.725213 -0.045881115
-0.15143225 -1.1582923
00000000: 30b3 4dbe bad6 78bf 1e2f df3d d8c0 523e
00000010: 42b5 f7bd 08a9 703e 8fa7 393f d6ed 3bbd
00000020: 0e11 1bbe ec42 94bf
